…
lr_policy: "fixed"
momentum: 0.9
snapshot: 2000
snapshot_prefix: "./snapshot/HVSMR"
solver_mode: GPU
device_id: 0
random_seed: 831486
net: "./train.prototxt"
delta: 1e-08
momentum2: 0.999
type: "Adam"
I0219 12:58:05.161541 28727 solver.cpp:91] Creating training net from net file: ./train.prototxt
I0219 12:58:05.161939 28727 net.cpp:49] Initializing net from parameters: 
name: "deep-net"
state {
  phase: TRAIN
}
layer {
  name: "Data"
  type: "HDF5Data"
  top: "DATA"
  top: "LABEL"
  hdf5_data_param {
    source: "Classification.list"
    batch_size: 1
  }
}
layer {
  name: "conv1"
  type: "Convolution"
  bottom: "DATA"
  top: "conv1"
  convolution_param {
    num_output: 2
    pad: 1
    kernel_size: 3
    stride: 1
    weight_filler {
      type: "gaussian"
      std: 0.01
    }
    bias_filler {
      type: "constant"
      std: 0
    }
  }
}
layer {
  name: "ReLU1"
  type: "ReLU"
  bottom: "conv1"
  top: "relu1"
}
layer {
  name: "deconv1"
  type: "Deconvolution"
  bottom: "relu1"
  top: "deconv1"
  convolution_param {
    num_output: 1
    pad: 1
    kernel_size: 3
    stride: 1
    weight_filler {
      type: "gaussian"
      std: 0.01
    }
    bias_filler {
      type: "constant"
      std: 0
    }
  }
}
layer {
  name: "ReLU"
  type: "ReLU"
  bottom: "deconv1"
  top: "relu"
}
layer {
  name: "silence"
  type: "Silence"
  bottom: "relu"
}
layer {
  name: "conv2"
  type: "Convolution"
  bottom: "relu1"
  top: "conv2"
  convolution_param {
    num_output: 4
    pad: 1
    kernel_size: 3
    stride: 2
    weight_filler {
      type: "gaussian"
      std: 0.01
    }
    bias_filler {
      type: "constant"
      std: 0
    }
  }
}
layer {
  name: "ReLU2"
  type: "ReLU"
  bottom: "conv2"
  top: "relu2"
}
layer {
  name: "conv3"
  type: "Convolution"
  bottom: "relu2"
  top: "conv3"
  convolution_param {
    num_output: 8
    pad: 1
    kernel_size: 3
    stride: 2
    weight_filler {
      type: "gaussian"
      std: 0.01
    }
    bias_filler {
      type: "constant"
      std: 0
    }
  }
}
layer {
  name: "ReLU3"
  type: "ReLU"
  bottom: "conv3"
  top: "relu3"
}
layer {
  name: "conv4"
  type: "Convolution"
  bottom: "relu3"
  top: "conv4"
  convolution_param {
    num_output: 16
    pad: 1
    kernel_size: 3
    stride: 2
    weight_filler {
      type: "gaussian"
      std: 0.01
    }
    bias_filler {
      type: "constant"
      std: 0
    }
  }
}
layer {
  name: "ReLU4"
  type: "ReLU"
  bottom: "conv4"
  top: "relu4"
}
layer {
  name: "fullyconnected1"
  type: "InnerProduct"
  bottom: "relu4"
  top: "score"
  inner_product_param {
    num_output: 2
    weight_filler {
      type: "gaussian"
      std: 0.01
    }
    bias_filler {
      type: "constant"
      std: 0
    }
  }
}
layer {
  name: "loss_main"
  type: "SoftmaxWithLoss"
  bottom: "score"
  bottom: "LABEL"
  top: "loss_main"
}
layer {
  name: "acc_test"
  type: "Accuracy"
  bottom: "score"
  bottom: "LABEL"
  top: "Accuracy"
}
I0219 12:58:05.162477 28727 layer_factory.hpp:77] Creating layer Data
I0219 12:58:05.162498 28727 net.cpp:106] Creating Layer Data
I0219 12:58:05.162509 28727 net.cpp:411] Data -> DATA
I0219 12:58:05.162533 28727 net.cpp:411] Data -> LABEL
I0219 12:58:05.162551 28727 hdf5_data_layer.cpp:103] Loading list of HDF5 filenames from: Classification.list
I0219 12:58:05.162658 28727 hdf5_data_layer.cpp:117] Number of HDF5 files: 360
I0219 12:58:05.163904 28727 hdf5.cpp:35] Datatype class: H5T_INTEGER
I0219 12:58:05.211141 28727 net.cpp:150] Setting up Data
I0219 12:58:05.211169 28727 net.cpp:157] Top shape: 1 1 192 192 160 (5898240)
I0219 12:58:05.211176 28727 net.cpp:157] Top shape: 1 (1)
I0219 12:58:05.211182 28727 net.cpp:165] Memory required for data: 23592964
I0219 12:58:05.211191 28727 layer_factory.hpp:77] Creating layer LABEL_Data_1_split
I0219 12:58:05.211205 28727 net.cpp:106] Creating Layer LABEL_Data_1_split
I0219 12:58:05.211212 28727 net.cpp:454] LABEL_Data_1_split <- LABEL
I0219 12:58:05.211242 28727 net.cpp:411] LABEL_Data_1_split -> LABEL_Data_1_split_0
I0219 12:58:05.211256 28727 net.cpp:411] LABEL_Data_1_split -> LABEL_Data_1_split_1
I0219 12:58:05.211297 28727 net.cpp:150] Setting up LABEL_Data_1_split
I0219 12:58:05.211319 28727 net.cpp:157] Top shape: 1 (1)
I0219 12:58:05.211325 28727 net.cpp:157] Top shape: 1 (1)
I0219 12:58:05.211331 28727 net.cpp:165] Memory required for data: 23592972
I0219 12:58:05.211336 28727 layer_factory.hpp:77] Creating layer conv1
I0219 12:58:05.211352 28727 net.cpp:106] Creating Layer conv1
I0219 12:58:05.211362 28727 net.cpp:454] conv1 <- DATA
I0219 12:58:05.211371 28727 net.cpp:411] conv1 -> conv1
I0219 12:58:05.220019 28727 net.cpp:150] Setting up conv1
I0219 12:58:05.220044 28727 net.cpp:157] Top shape: 1 2 192 192 160 (11796480)
I0219 12:58:05.220050 28727 net.cpp:165] Memory required for data: 70778892
I0219 12:58:05.220073 28727 layer_factory.hpp:77] Creating layer ReLU1
I0219 12:58:05.220086 28727 net.cpp:106] Creating Layer ReLU1
I0219 12:58:05.220093 28727 net.cpp:454] ReLU1 <- conv1
I0219 12:58:05.220101 28727 net.cpp:411] ReLU1 -> relu1
I0219 12:58:05.220135 28727 net.cpp:150] Setting up ReLU1
I0219 12:58:05.220144 28727 net.cpp:157] Top shape: 1 2 192 192 160 (11796480)
I0219 12:58:05.220155 28727 net.cpp:165] Memory required for data: 117964812
I0219 12:58:05.220160 28727 layer_factory.hpp:77] Creating layer relu1_ReLU1_0_split
I0219 12:58:05.220170 28727 net.cpp:106] Creating Layer relu1_ReLU1_0_split
I0219 12:58:05.220176 28727 net.cpp:454] relu1_ReLU1_0_split <- relu1
I0219 12:58:05.220183 28727 net.cpp:411] relu1_ReLU1_0_split -> relu1_ReLU1_0_split_0
I0219 12:58:05.220191 28727 net.cpp:411] relu1_ReLU1_0_split -> relu1_ReLU1_0_split_1
I0219 12:58:05.220212 28727 net.cpp:150] Setting up relu1_ReLU1_0_split
I0219 12:58:05.220221 28727 net.cpp:157] Top shape: 1 2 192 192 160 (11796480)
I0219 12:58:05.220227 28727 net.cpp:157] Top shape: 1 2 192 192 160 (11796480)
I0219 12:58:05.220232 28727 net.cpp:165] Memory required for data: 212336652
I0219 12:58:05.220238 28727 layer_factory.hpp:77] Creating layer deconv1
I0219 12:58:05.220247 28727 net.cpp:106] Creating Layer deconv1
I0219 12:58:05.220253 28727 net.cpp:454] deconv1 <- relu1_ReLU1_0_split_0
I0219 12:58:05.220260 28727 net.cpp:411] deconv1 -> deconv1
I0219 12:58:05.229075 28727 net.cpp:150] Setting up deconv1
I0219 12:58:05.229099 28727 net.cpp:157] Top shape: 1 1 192 192 160 (5898240)
I0219 12:58:05.229106 28727 net.cpp:165] Memory required for data: 235929612
I0219 12:58:05.229120 28727 layer_factory.hpp:77] Creating layer ReLU
I0219 12:58:05.229130 28727 net.cpp:106] Creating Layer ReLU
I0219 12:58:05.229136 28727 net.cpp:454] ReLU <- deconv1
I0219 12:58:05.229144 28727 net.cpp:411] ReLU -> relu
I0219 12:58:05.229177 28727 net.cpp:150] Setting up ReLU
I0219 12:58:05.229188 28727 net.cpp:157] Top shape: 1 1 192 192 160 (5898240)
I0219 12:58:05.229194 28727 net.cpp:165] Memory required for data: 259522572
I0219 12:58:05.229200 28727 layer_factory.hpp:77] Creating layer silence
I0219 12:58:05.229218 28727 net.cpp:106] Creating Layer silence
I0219 12:58:05.229225 28727 net.cpp:454] silence <- relu
I0219 12:58:05.229234 28727 net.cpp:150] Setting up silence
I0219 12:58:05.229240 28727 net.cpp:165] Memory required for data: 259522572
I0219 12:58:05.229245 28727 layer_factory.hpp:77] Creating layer conv2
I0219 12:58:05.229257 28727 net.cpp:106] Creating Layer conv2
I0219 12:58:05.229264 28727 net.cpp:454] conv2 <- relu1_ReLU1_0_split_1
I0219 12:58:05.229272 28727 net.cpp:411] conv2 -> conv2
I0219 12:58:05.230571 28727 net.cpp:150] Setting up conv2
I0219 12:58:05.230584 28727 net.cpp:157] Top shape: 1 4 96 96 80 (2949120)
I0219 12:58:05.230590 28727 net.cpp:165] Memory required for data: 271319052
I0219 12:58:05.230600 28727 layer_factory.hpp:77] Creating layer ReLU2
I0219 12:58:05.230607 28727 net.cpp:106] Creating Layer ReLU2
I0219 12:58:05.230614 28727 net.cpp:454] ReLU2 <- conv2
I0219 12:58:05.230624 28727 net.cpp:411] ReLU2 -> relu2
I0219 12:58:05.230645 28727 net.cpp:150] Setting up ReLU2
I0219 12:58:05.230669 28727 net.cpp:157] Top shape: 1 4 96 96 80 (2949120)
I0219 12:58:05.230675 28727 net.cpp:165] Memory required for data: 283115532
I0219 12:58:05.230682 28727 layer_factory.hpp:77] Creating layer conv3
I0219 12:58:05.230692 28727 net.cpp:106] Creating Layer conv3
I0219 12:58:05.230698 28727 net.cpp:454] conv3 <- relu2
I0219 12:58:05.230705 28727 net.cpp:411] conv3 -> conv3
I0219 12:58:05.232185 28727 net.cpp:150] Setting up conv3
I0219 12:58:05.232199 28727 net.cpp:157] Top shape: 1 8 48 48 40 (737280)
I0219 12:58:05.232206 28727 net.cpp:165] Memory required for data: 286064652
I0219 12:58:05.232214 28727 layer_factory.hpp:77] Creating layer ReLU3
I0219 12:58:05.232223 28727 net.cpp:106] Creating Layer ReLU3
I0219 12:58:05.232228 28727 net.cpp:454] ReLU3 <- conv3
I0219 12:58:05.232235 28727 net.cpp:411] ReLU3 -> relu3
I0219 12:58:05.232254 28727 net.cpp:150] Setting up ReLU3
I0219 12:58:05.232262 28727 net.cpp:157] Top shape: 1 8 48 48 40 (737280)
I0219 12:58:05.232268 28727 net.cpp:165] Memory required for data: 289013772
I0219 12:58:05.232275 28727 layer_factory.hpp:77] Creating layer conv4
I0219 12:58:05.232283 28727 net.cpp:106] Creating Layer conv4
I0219 12:58:05.232290 28727 net.cpp:454] conv4 <- relu3
I0219 12:58:05.232296 28727 net.cpp:411] conv4 -> conv4
I0219 12:58:05.233906 28727 net.cpp:150] Setting up conv4
I0219 12:58:05.233919 28727 net.cpp:157] Top shape: 1 16 24 24 20 (184320)
I0219 12:58:05.233925 28727 net.cpp:165] Memory required for data: 289751052
I0219 12:58:05.233937 28727 layer_factory.hpp:77] Creating layer ReLU4
I0219 12:58:05.233944 28727 net.cpp:106] Creating Layer ReLU4
I0219 12:58:05.233950 28727 net.cpp:454] ReLU4 <- conv4
I0219 12:58:05.233958 28727 net.cpp:411] ReLU4 -> relu4
I0219 12:58:05.233980 28727 net.cpp:150] Setting up ReLU4
I0219 12:58:05.233989 28727 net.cpp:157] Top shape: 1 16 24 24 20 (184320)
I0219 12:58:05.233994 28727 net.cpp:165] Memory required for data: 290488332
I0219 12:58:05.234000 28727 layer_factory.hpp:77] Creating layer fullyconnected1
I0219 12:58:05.234012 28727 net.cpp:106] Creating Layer fullyconnected1
I0219 12:58:05.234019 28727 net.cpp:454] fullyconnected1 <- relu4
I0219 12:58:05.234026 28727 net.cpp:411] fullyconnected1 -> score
I0219 12:58:05.241178 28727 net.cpp:150] Setting up fullyconnected1
I0219 12:58:05.241191 28727 net.cpp:157] Top shape: 1 2 (2)
I0219 12:58:05.241197 28727 net.cpp:165] Memory required for data: 290488340
I0219 12:58:05.241205 28727 layer_factory.hpp:77] Creating layer score_fullyconnected1_0_split
I0219 12:58:05.241214 28727 net.cpp:106] Creating Layer score_fullyconnected1_0_split
I0219 12:58:05.241223 28727 net.cpp:454] score_fullyconnected1_0_split <- score
I0219 12:58:05.241230 28727 net.cpp:411] score_fullyconnected1_0_split -> score_fullyconnected1_0_split_0
I0219 12:58:05.241238 28727 net.cpp:411] score_fullyconnected1_0_split -> score_fullyconnected1_0_split_1
I0219 12:58:05.241259 28727 net.cpp:150] Setting up score_fullyconnected1_0_split
I0219 12:58:05.241266 28727 net.cpp:157] Top shape: 1 2 (2)
I0219 12:58:05.241272 28727 net.cpp:157] Top shape: 1 2 (2)
I0219 12:58:05.241278 28727 net.cpp:165] Memory required for data: 290488356
I0219 12:58:05.241287 28727 layer_factory.hpp:77] Creating layer loss_main
I0219 12:58:05.241297 28727 net.cpp:106] Creating Layer loss_main
I0219 12:58:05.241303 28727 net.cpp:454] loss_main <- score_fullyconnected1_0_split_0
I0219 12:58:05.241310 28727 net.cpp:454] loss_main <- LABEL_Data_1_split_0
I0219 12:58:05.241317 28727 net.cpp:411] loss_main -> loss_main
…
